1721655047.117985

EEG_SequentialCompressionUnit(
  (forward_linear): Linear(in_features=32, out_features=32, bias=False)
  (recurrent_linear): Linear(in_features=32, out_features=32, bias=False)
  (neuron): WTA_LIFNode(
    v_threshold=3.0, v_reset=0.0, detach_reset=False, step_mode=s, backend=torch, tau=6.0
    (surrogate_function): Sigmoid(alpha=4.0, spiking=True)
  )
)

1152

[[… EEG_SequentialCompressionUnit(
  (forward_linear): Linear(in_features=32, out_features=32, bias=False)
  (recurrent_linear): Linear(in_features=32, out_features=32, bias=False)
  (neuron): WTA_LIFNode(
    v_threshold=3.0, v_reset=0.0, detach_reset=False, step_mode=s, backend=torch, tau=6.0
    (surrogate_function): Sigmoid(alpha=4.0, spiking=True)
  )
)

1152

[[… EEG_SequentialCompressionUnit(
  (forward_linear): Linear(in_features=32, out_features=32, bias=False)
  (recurrent_linear): Linear(in_features=32, out_features=32, bias=False)
  (neuron): WTA_LIFNode(
    v_threshold=3.0, v_reset=0.0, detach_reset=False, step_mode=s, backend=torch, tau=6.0
    (surrogate_function): Sigmoid(alpha=4.0, spiking=True)
  )
)

1152

[[… EEG_SequentialCompressionUnit(
  (forward_linear): Linear(in_features=32, out_features=32, bias=False)
  (recurrent_linear): Linear(in_features=32, out_features=32, bias=False)
  (neuron): WTA_LIFNode(
    v_threshold=3.0, v_reset=0.0, detach_reset=False, step_mode=s, backend=torch, tau=6.0
    (surrogate_function): Sigmoid(alpha=4.0, spiking=True)
  )
)

1152

[[… EEG_SequentialCompressionUnit(
  (forward_linear): Linear(in_features=32, out_features=32, bias=False)
  (recurrent_linear): Linear(in_features=32, out_features=32, bias=False)
  (neuron): WTA_LIFNode(
    v_threshold=3.0, v_reset=0.0, detach_reset=False, step_mode=s, backend=torch, tau=6.0
    (surrogate_function): Sigmoid(alpha=4.0, spiking=True)
  )
)

1152

[[… EEG_SequentialCompressionUnit(
  (forward_linear): Linear(in_features=32, out_features=32, bias=False)
  (recurrent_linear): Linear(in_features=32, out_features=32, bias=False)
  (neuron): WTA_LIFNode(
    v_threshold=3.0, v_reset=0.0, detach_reset=False, step_mode=s, backend=torch, tau=6.0
    (surrogate_function): Sigmoid(alpha=4.0, spiking=True)
  )
)

1152

[[… EEG_SequentialCompressionUnit(
  (forward_linear): Linear(in_features=32, out_features=32, bias=False)
  (recurrent_linear): Linear(in_features=32, out_features=32, bias=False)
  (neuron): WTA_LIFNode(
    v_threshold=3.0, v_reset=0.0, detach_reset=False, step_mode=s, backend=torch, tau=6.0
    (surrogate_function): Sigmoid(alpha=4.0, spiking=True)
  )
)

1152

[[… 